…
=(1, 1))\n    (13): ReLU()\n    (14): MaxPool2d(kernel_size=2, stride=2, padding=0, dilation=1, ceil_mode=False)\n  )\n  (fc): Linear(in_features=6272, out_features=3, bias=True)\n)\n\n\ntorchsummary의 summary로 CNNModel의 구조와 paramter 수를 요약 출력 합니다.\n\n설치되어 있지 않다면 pip install torchsummary로 설치할 수 있습니다.\n\n\nfrom torchsummary import summary\n\nsummary(model, (3, 224, 224))\n\n----------------------------------------------------------------\n        Layer (type)               Output Shape         Param #\n================================================================\n            Conv2d-1         [-1, 32, 224, 224]             896\n              ReLU-2         [-1, 32, 224, 224]               0\n         MaxPool2d-3         [-1, 32, 112, 112]               0\n            Conv2d-4         [-1, 64, 112, 112]          18,496\n              ReLU-5         [-1, 64, 112, 112]               0\n         MaxPool2d-6           [-1, 64, 56, 56]               0\n            Conv2d-7           [-1, 64, 56, 56]          36,928\n              ReLU-8           [-1, 64, 56, 56]               0\n         MaxPool2d-9           [-1, 64, 28, 28]               0\n           Conv2d-10          [-1, 128, 28, 28]          73,856\n             ReLU-11          [-1, 128, 28, 28]               0\n        MaxPool2d-12          [-1, 128, 14, 14]               0\n           Conv2d-13          [-1, 128, 14, 14]         147,584\n             ReLU-14          [-1, 128, 14, 14]               0\n        MaxPool2d-15            [-1, 128, 7, 7]               0\n           Linear-16                    [-1, 3]          18,819\n================================================================\nTotal params: 296,579\nTrainable params: 296,579\nNon-trainable params: 0\n----------------------------------------------------------------\nInput size (MB): 0.57\nForward/backward pass size (MB): 46.94\nParams size (MB): 1.13\nEstimated Total Size (MB): 48.65\n----------------------------------------------------------------\n\n\n\n# 옵티마이저를 정의합니다. 옵티마이저에는 model.parameters()를 지정해야 합니다.\noptimizer = optim.Adam(model.parameters(), lr=0.0005)\n\n# 손실함수(loss function)을 지정합니다. Multi-Class Classification 이기 때문에 CrossEntropy 손실을 지정하였습니다.\nloss_fn = nn.CrossEntropyLoss()",
…
atures=4096, out_features=1000),\n        )\n    \n    def forward(self, x):\n        x = self.layers(x)\n        x = x.view(-1, 256*6*6)\n        x = self.classifier(x)\n        return x\n\n\nimport torchsummary\n\nmodel = AlexNet()\nmodel.to(device)\n\n# AlexNet의 Image 입력 사이즈는 (3, 227, 227) 입니다.\ntorchsummary.summary(model, input_size=(3, 227, 227), device='cuda')\n\n----------------------------------------------------------------\n        Layer (type)               Output Shape         Param #\n================================================================\n            Conv2d-1           [-1, 96, 55, 55]          34,944\n              ReLU-2           [-1, 96, 55, 55]               0\n         MaxPool2d-3           [-1, 96, 27, 27]               0\n            Conv2d-4          [-1, 256, 27, 27]         614,656\n              ReLU-5          [-1, 256, 27, 27]               0\n         MaxPool2d-6          [-1, 256, 13, 13]               0\n            Conv2d-7          [-1, 384, 13, 13]         885,120\n              ReLU-8          [-1, 384, 13, 13]               0\n            Conv2d-9          [-1, 384, 13, 13]       1,327,488\n             ReLU-10          [-1, 384, 13, 13]               0\n           Conv2d-11          [-1, 256, 13, 13]         884,992\n             ReLU-12          [-1, 256, 13, 13]               0\n        MaxPool2d-13            [-1, 256, 6, 6]               0\n          Dropout-14                 [-1, 9216]               0\n           Linear-15                 [-1, 4096]      37,752,832\n             ReLU-16                 [-1, 4096]               0\n          Dropout-17                 [-1, 4096]               0\n           Linear-18                 [-1, 4096]      16,781,312\n             ReLU-19                 [-1, 4096]               0\n           Linear-20                 [-1, 1000]       4,097,000\n================================================================\nTotal params: 62,378,344\nTrainable params: 62,378,344\nNon-trainable params: 0\n----------------------------------------------------------------\nInput size (MB): 0.59\nForward/backward pass size (MB): 11.09\nParams size (MB): 237.95\nEstimated Total Size (MB): 249.63\n----------------------------------------------------------------\n\n\n\n# 옵티마이저를 정의합니다. 옵티마이저에는 model.parameters()를 지정해야 합니다.\noptimizer = optim.Adam(model.parameters(), lr=LR)\n\n# 손실함수(loss function)을 지정합니다. Multi-Class Classification 이기 때문에 CrossEntropy 손실을 지정하였습니다.\nloss_fn = nn.CrossEntropyLoss()",
…
   x4 = self.pool(x)\n        return torch.cat([x1, x2, x3, x4], 1)\n\n\n# 입력 매개변수: in_channels, 1x1, 3x3 reduction, 3x3, 5x5 reduction, 5x5, Maxpool reduction\ninception_module_V2 = InceptionModuleV2(192, 64, 96, 128, 16, 32, 32)\n\n\n# torchsummary 로 192 x 28 x 28 입력을 주었을 때의 파라미터 추정\ntorchsummary.summary(inception_module_V2, input_size=(192, 28, 28), device='cpu')\n\n----------------------------------------------------------------\n        Layer (type)               Output Shape         Param #\n================================================================\n            Conv2d-1           [-1, 64, 28, 28]          12,352\n              ReLU-2           [-1, 64, 28, 28]               0\n        BaseConv2D-3           [-1, 64, 28, 28]               0\n            Conv2d-4           [-1, 96, 28, 28]          18,528\n              ReLU-5           [-1, 96, 28, 28]               0\n        BaseConv2D-6           [-1, 96, 28, 28]               0\n            Conv2d-7          [-1, 128, 28, 28]         110,720\n              ReLU-8          [-1, 128, 28, 28]               0\n        BaseConv2D-9          [-1, 128, 28, 28]               0\n           Conv2d-10           [-1, 16, 28, 28]           3,088\n             ReLU-11           [-1, 16, 28, 28]               0\n       BaseConv2D-12           [-1, 16, 28, 28]               0\n           Conv2d-13           [-1, 32, 28, 28]          12,832\n             ReLU-14           [-1, 32, 28, 28]               0\n       BaseConv2D-15           [-1, 32, 28, 28]               0\n        MaxPool2d-16          [-1, 192, 28, 28]               0\n           Conv2d-17           [-1, 32, 28, 28]           6,176\n             ReLU-18           [-1, 32, 28, 28]               0\n       BaseConv2D-19           [-1, 32, 28, 28]               0\n================================================================\nTotal params: 163,696\nTrainable params: 163,696\nNon-trainable params: 0\n----------------------------------------------------------------\nInput size (MB): 0.57\nForward/backward pass size (MB): 7.75\nParams size (MB): 0.62\nEstimated Total Size (MB): 8.95\n----------------------------------------------------------------\n\n\n\n
…
=========================] - 7s 4ms/step - loss: 0.0615 - acc: 0.9815 - val_loss: 1.0190 - val_acc: 0.8900\nEpoch 100/100\n1875/1875 [==============================] - 8s 4ms/step - loss: 0.0442 - acc: 0.9846 - val_loss: 1.0824 - val_acc: 0.8958\n\n\n&lt;tensorflow.python.keras.callbacks.History at 0x7f5886e590f0&gt;\n\n\n\nmodel.summary()\n\nModel: \"sequential_1\"\n_________________________________________________________________\nLayer (type)                 Output Shape              Param #   \n=================================================================\nflatten_1 (Flatten)          (None, 784)               0         \n_________________________________________________________________\ndense_6 (Dense)              (None, 512)               401920    \n_________________________________________________________________\ndense_7 (Dense)              (None, 256)               131328    \n_________________________________________________________________\ndense_8 (Dense)              (None, 128)               32896     \n_________________________________________________________________\ndense_9 (Dense)              (None, 64)                8256      \n_________________________________________________________________\ndense_10 (Dense)             (None, 10)                650       \n=================================================================\nTotal params: 575,050\nTrainable params: 575,050\nNon-trainable params: 0\n_________________________________________________________________",
    "crumbs": [
      "TensorFlow Deep Learning",
      "<span class='chapter-number'>55</span>  <span class='chapter-title'>데이터 로드 & 전처리</span>"
    ]
  },
  {
    "objectID": "04-TensorFlow2.0/03-tensorboard/TensorBoard_사용법.html#텐서보드를-colab에서-바로-로드-하기",
…
    "href": "04-TensorFlow2.0/05-auto-encoder/01-basic-auto-encoder-MNIST.html#encoder-모델-정의",
    "title": "Import",
    "section": "Encoder 모델 정의",
    "text": "Encoder 모델 정의\n\nencoder = Model(encoder_input, encoder_output)\n\n\nencoder.summary()\n\nModel: \"model_2\"\n_________________________________________________________________\nLayer (type)                 Output Shape              Param #   \n=================================================================\ninput_5 (InputLayer)         [(None, 28, 28, 1)]       0         \n_________________________________________________________________\nconv2d_36 (Conv2D)           (None, 28, 28, 32)        320       \n_________________________________________________________________\nbatch_normalization_44 (Batc (None, 28, 28, 32)        128       \n_________________________________________________________________\nleaky_re_lu_45 (LeakyReLU)   (None, 28, 28, 32)        0         \n_________________________________________________________________\nconv2d_37 (Conv2D)           (None, 14, 14, 64)        18496     \n_________________________________________________________________\nbatch_normalization_45 (Batc (None, 14, 14, 64)        256       \n_________________________________________________________________\nleaky_re_lu_46 (LeakyReLU)   (None, 14, 14, 64)        0         \n_________________________________________________________________\nconv2d_38 (Conv2D)           (None, 7, 7, 64)          36928     \n_________________________________________________________________\nbatch_normalization_46 (Batc (None, 7, 7, 64)          256       \n_________________________________________________________________\nleaky_re_lu_47 (LeakyReLU)   (None, 7, 7, 64)          0         \n_________________________________________________________________\nconv2d_39 (Conv2D)           (None, 7, 7, 64)          36928     \n_________________________________________________________________\nbatch_normalization_47 (Batc (None, 7, 7, 64)          256       \n_________________________________________________________________\nleaky_re_lu_48 (LeakyReLU)   (None, 7, 7, 64)          0         \n_________________________________________________________________\nflatten_9 (Flatten)          (None, 3136)              0         \n_________________________________________________________________\ndense_15 (Dense)             (None, 2)                 6274      \n=================================================================\nTotal params: 99,842\nTrainable params: 99,394\nNon-trainable params: 448\n_________________________________________________________________",
    "crumbs": [
      "TensorFlow Deep Learning",
      "<span class='chapter-number'>57</span>  <span class='chapter-title'>Import</span>"
    ]
  },
  {
    "objectID": "04-TensorFlow2.0/05-auto-encoder/01-basic-auto-encoder-MNIST.html#decoder",
…
    "href": "04-TensorFlow2.0/05-auto-encoder/01-basic-auto-encoder-MNIST.html#decoder-모델-정의",
    "title": "Import",
    "section": "Decoder 모델 정의",
    "text": "Decoder 모델 정의\n\ndecoder = Model(decoder_input, decoder_output)\n\n\ndecoder.summary()\n\nModel: \"model_3\"\n_________________________________________________________________\nLayer (type)                 Output Shape              Param #   \n=================================================================\ninput_7 (InputLayer)         [(None, 2)]               0         \n_________________________________________________________________\ndense_17 (Dense)             (None, 3136)              9408      \n_________________________________________________________________\nreshape_4 (Reshape)          (None, 7, 7, 64)          0         \n_________________________________________________________________\nconv2d_transpose_19 (Conv2DT (None, 7, 7, 64)          36928     \n_________________________________________________________________\nbatch_normalization_52 (Batc (None, 7, 7, 64)          256       \n_________________________________________________________________\nleaky_re_lu_53 (LeakyReLU)   (None, 7, 7, 64)          0         \n_________________________________________________________________\nconv2d_transpose_20 (Conv2DT (None, 14, 14, 64)        36928     \n_________________________________________________________________\nbatch_normalization_53 (Batc (None, 14, 14, 64)        256       \n_________________________________________________________________\nleaky_re_lu_54 (LeakyReLU)   (None, 14, 14, 64)        0         \n_________________________________________________________________\nconv2d_transpose_21 (Conv2DT (None, 28, 28, 64)        36928     \n_________________________________________________________________\nbatch_normalization_54 (Batc (None, 28, 28, 64)        256       \n_________________________________________________________________\nleaky_re_lu_55 (LeakyReLU)   (None, 28, 28, 64)        0         \n_________________________________________________________________\nconv2d_transpose_22 (Conv2DT (None, 28, 28, 32)        18464     \n_________________________________________________________________\nbatch_normalization_55 (Batc (None, 28, 28, 32)        128       \n_________________________________________________________________\nleaky_re_lu_56 (LeakyReLU)   (None, 28, 28, 32)        0         \n_________________________________________________________________\nconv2d_transpose_23 (Conv2DT (None, 28, 28, 1)         289       \n=================================================================\nTotal params: 139,841\nTrainable params: 139,393\nNon-trainable params: 448\n_________________________________________________________________",
    "crumbs": [
      "TensorFlow Deep Learning",
      "<span class='chapter-number'>57</span>  <span class='chapter-title'>Import</span>"
    ]
  },
  {
    "objectID": "04-TensorFlow2.0/05-auto-encoder/01-basic-auto-encoder-MNIST.html#hyperparameter-정의",
…
    "text": "STEP 1. Model을 정의합니다.\n\n# layer 정의\ninput_ = tf.keras.layers.Input(shape=(28, 28, 1))\nx = tf.keras.layers.Conv2D(32, 3, activation='relu')(input_)\nx = tf.keras.layers.Conv2D(64, 3, activation='relu')(x)\nx = tf.keras.layers.Flatten()(x)\nx = tf.keras.layers.Dense(128, activation='relu')(x)\noutput_ = tf.keras.layers.Dense(10, activation='softmax')(x)\n\n# model을 정의\nmodel = tf.keras.models.Model(input_, output_)\n\n\nmodel.summary()\n\nModel: \"model\"\n_________________________________________________________________\nLayer (type)                 Output Shape              Param #   \n=================================================================\ninput_1 (InputLayer)         [(None, 28, 28, 1)]       0         \n_________________________________________________________________\nconv2d_4 (Conv2D)            (None, 26, 26, 32)        320       \n_________________________________________________________________\nconv2d_5 (Conv2D)            (None, 24, 24, 64)        18496     \n_________________________________________________________________\nflatten_4 (Flatten)          (None, 36864)             0         \n_________________________________________________________________\ndense_8 (Dense)              (None, 128)               4718720   \n_________________________________________________________________\ndense_9 (Dense)              (None, 10)                1290      \n=================================================================\nTotal params: 4,738,826\nTrainable params: 4,738,826\nNon-trainable params: 0\n_________________________________________________________________",
    "crumbs": [
      "TensorFlow Deep Learning",
      "<span class='chapter-number'>58</span>  <span class='chapter-title'>샘플데이터 로드 (mnist)</span>"
    ]
  },
  {
    "objectID": "04-TensorFlow2.0/06-gradient-tape/GradientTape.html#step-2.-loss-function을-정의합니다.",
…
n        x = self.conv2d_2(x)\n        x = self.avg_pool(x)\n        x = self.flatten(x)\n        x = self.dense_1(x)\n        x = self.dense_2(x)\n        x = self.output_(x)\n        return x\n    \n\n\nmodel = LeNet5(10)\n\n\nmodel.summary()\n\nModel: \"model_3\"\n__________________________________________________________________________________________________\ninput_6 (InputLayer)            [(None, 32, 32, 1)]  0                                            \n__________________________________________________________________________________________________\nconv2d_18 (Conv2D)              (None, 28, 28, 6)    156         input_6[0][0]                    \n__________________________________________________________________________________________________\naverage_pooling2d_9 (AveragePoo multiple             0           conv2d_18[0][0]                  \n                                                                 conv2d_19[0][0]                  \n__________________________________________________________________________________________________\nconv2d_19 (Conv2D)              (None, 10, 10, 16)   2416        average_pooling2d_9[0][0]        \n__________________________________________________________________________________________________\nflatten_9 (Flatten)             (None, 400)          0           average_pooling2d_9[1][0]        \n__________________________________________________________________________________________________\ndense_27 (Dense)                (None, 120)          48120       flatten_9[0][0]                  \n__________________________________________________________________________________________________\ndense_28 (Dense)                (None, 84)           10164       dense_27[0][0]                   \n__________________________________________________________________________________________________\ndense_29 (Dense)                (None, 10)           850         dense_28[0][0]                   \n==================================================================================================\nTotal params: 61,706\nTrainable params: 61,706\nNon-trainable params: 0\n__________________________________________________________________________________________________\n\n\n\nmodel.compile(optimizer='adam', loss='sparse_categorical_crossentropy', metri
…
ls.plot_model(vgg_model,show_shapes=True)\n\n\n\n\n\n\n\n\n\nvgg_model.trainable=False\n\n\ni=vgg_model.input\nout=vgg_model.get_layer(index=-2).output\nout=tf.keras.layers.GlobalAveragePooling2D()(out)\nout=tf.keras.layers.Dense(2, activation='softmax')(out)\ntrain_cam_model=tf.keras.Model(inputs=[i],outputs=[out])\n\n\ntrain_cam_model.summary()\n\nModel: \"model\"\n_________________________________________________________________\ninput_1 (InputLayer)         [(None, 150, 150, 3)]     0         \n_________________________________________________________________\nblock1_conv1 (Conv2D)        (None, 150, 150, 64)      1792      \n_________________________________________________________________\nblock1_conv2 (Conv2D)        (None, 150, 150, 64)      36928     \n_________________________________________________________________\nblock1_pool (MaxPooling2D)   (None, 75, 75, 64)        0         \n_________________________________________________________________\nblock2_conv1 (Conv2D)        (None, 75, 75, 128)       73856     \n_________________________________________________________________\nblock2_conv2 (Conv2D)        (None, 75, 75, 128)       147584    \n_________________________________________________________________\nblock2_pool (MaxPooling2D)   (None, 37, 37, 128)       0         \n_________________________________________________________________\nblock3_conv1 (Conv2D)        (None, 37, 37, 256)       295168    \n_________________________________________________________________\nblock3_conv2 (Conv2D)        (None, 37, 37, 256)       590080    \n_________________________________________________________________\nblock3_conv3 (Conv2D)        (None, 37, 37, 256)       590080    \n_________________________________________________________________\nblock3_pool (MaxPooling2D)   (None, 18, 18, 256)       0         \n_________________________________________________________________\nblock4_conv1 (Conv2D)        (None, 18, 18, 512)       1180160   \n_________________________________________________________________\nblock4_conv2 (Conv2D)        (None, 18, 18, 512)       2359808   \n_________________________________________________________________\nblock4_conv3 (Conv2D)        (None, 18, 18, 512)       2359808   \n_________________________________________________________________\nblock4_pool (MaxPooling2D)   (None, 9, 9, 512)         0         \n_________________________________________________________________\nblock5_conv1 (Conv2D)        (None, 9, 9, 512)         2359808   \n_________________________________________________________________\nblock5_conv2 (Conv2D)        (None, 9, 9, 512)         2359808   \n_________________________________________________________________\nblock5_conv3 (Conv2D)        (None, 9, 9, 512)         2359808   \n_________________________________________________________________\nglobal_average_pooling2d (Gl (None, 512)               0         \n_________________________________________________________________\ndense (Dense)                (None, 2)                 1026      \n=================================================================\nTotal params: 14,715,714\nTrainable params: 1,026\nNon-trainable params: 14,714,688\n_________________________________________________________________\n\n\n\ntrain_cam_model.compile(optimizer='adam', loss='sparse_categorical_crossentropy', metrics=['acc'])\n\n\nepochs=20\n\n\nhistory = train_cam_model.fit(training_generator
…
    "title": "Vanilla Gan Tutorial!",
    "section": "Generator",
    "text": "Generator\ngenerator를 정의합니다.\n\ngenerator = Sequential([\n    Dense(256, input_dim=NOISE_DIM), \n    LeakyReLU(0.2), \n    Dense(512), \n    LeakyReLU(0.2), \n    Dense(1024), \n    LeakyReLU(0.2), \n    Dense(28*28, activation='tanh'),\n])\n\n\ngenerator.summary()\n\nModel: \"sequential\"\n_________________________________________________________________\nLayer (type)                 Output Shape              Param #   \n=================================================================\ndense (Dense)                (None, 256)               2816      \n_________________________________________________________________\nleaky_re_lu (LeakyReLU)      (None, 256)               0         \n_________________________________________________________________\ndense_1 (Dense)              (None, 512)               131584    \n_________________________________________________________________\nleaky_re_lu_1 (LeakyReLU)    (None, 512)               0         \n_________________________________________________________________\ndense_2 (Dense)              (None, 1024)              525312    \n_________________________________________________________________\nleaky_re_lu_2 (LeakyReLU)    (None, 1024)              0         \n_________________________________________________________________\ndense_3 (Dense)              (None, 784)               803600    \n=================================================================\nTotal params: 1,463,312\nTrainable params: 1,463,312\nNon-trainable params: 0\n_________________________________________________________________",
    "crumbs": [
      "Advanced Deep Learning",
      "<span class='chapter-number'>71</span>  <span class='chapter-title'>Vanilla Gan Tutorial!</span>"
    ]
  },
  {
    "objectID": "09-GAN/01-VanillaGAN-MNIST-Tutorial.html#discriminator",
…
    "text": "Discriminator\ndiscriminator를 정의합니다.\n\ndiscriminator = Sequential([\n    Dense(1024, input_shape=(784,), kernel_initializer=RandomNormal(stddev=0.02)),\n    LeakyReLU(0.2), \n    Dropout(0.3), \n    Dense(512),\n    LeakyReLU(0.2), \n    Dropout(0.3), \n    Dense(256),\n    LeakyReLU(0.2), \n    Dropout(0.3), \n    Dense(1, activation='sigmoid')\n])\n\n\ndiscriminator.summary()\n\nModel: \"sequential_1\"\n_________________________________________________________________\nLayer (type)                 Output Shape              Param #   \n=================================================================\ndense_4 (Dense)              (None, 1024)              803840    \n_________________________________________________________________\nleaky_re_lu_3 (LeakyReLU)    (None, 1024)              0         \n_________________________________________________________________\ndropout (Dropout)            (None, 1024)              0         \n_________________________________________________________________\ndense_5 (Dense)              (None, 512)               524800    \n_________________________________________________________________\nleaky_re_lu_4 (LeakyReLU)    (None, 512)               0         \n_________________________________________________________________\ndropout_1 (Dropout)          (None, 512)               0         \n_________________________________________________________________\ndense_6 (Dense)              (None, 256)               131328    \n_________________________________________________________________\nleaky_re_lu_5 (LeakyReLU)    (None, 256)               0         \n_________________________________________________________________\ndropout_2 (Dropout)          (None, 256)               0         \n_________________________________________________________________\ndense_7 (Dense)              (None, 1)                 257       \n=================================================================\nTotal params: 1,460,225\nTrainable params: 1,460,225\nNon-trainable params: 0\n_________________________________________________________________\n\n\n반드시 dicriminator를 compile 해주어야 합니다.\n\ndiscriminator.compile(loss='binary_crossentropy', optimizer=adam)",
    "crumbs": [
      "Advanced Deep Learning",
      "<span class='chapter-number'>71</span>  <span class='chapter-title'>Vanilla Gan Tutorial!</span>"
…
    "text": "Generator\ngenerator를 정의합니다.\n\ngenerator = Sequential([\n    Dense(256 * 7 * 7, input_dim=NOISE_DIM), \n    LeakyReLU(alpha=0.01), \n    Reshape((7, 7, 256)), \n    Conv2DTranspose(128, kernel_size=3, strides=2, padding='same'), \n    BatchNormalization(), \n    LeakyReLU(alpha=0.01), \n    Conv2DTranspose(64, kernel_size=3, strides=2, padding='same'),\n    BatchNormalization(), \n    LeakyReLU(alpha=0.01), \n    Conv2D(1, kernel_size=3, padding='same'),\n    Activation('tanh'),\n])\n\n\ngenerator.summary()\n\nModel: \"sequential\"\n_________________________________________________________________\nLayer (type)                 Output Shape              Param #   \n=================================================================\ndense (Dense)                (None, 12544)             1266944   \n_________________________________________________________________\nleaky_re_lu (LeakyReLU)      (None, 12544)             0         \n_________________________________________________________________\nreshape (Reshape)            (None, 7, 7, 256)         0         \n_________________________________________________________________\nconv2d_transpose (Conv2DTran (None, 14, 14, 128)       295040    \n_________________________________________________________________\nbatch_normalization (BatchNo (None, 14, 14, 128)       512       \n_________________________________________________________________\nleaky_re_lu_1 (LeakyReLU)    (None, 14, 14, 128)       0         \n_________________________________________________________________\nconv2d_transpose_1 (Conv2DTr (None, 28, 28, 64)        73792     \n_________________________________________________________________\nbatch_normalization_1 (Batch (None, 28, 28, 64)        256       \n_________________________________________________________________\nleaky_re_lu_2 (LeakyReLU)    (None, 28, 28, 64)        0         \n_________________________________________________________________\nconv2d (Conv2D)              (None, 28, 28, 1)         577       \n_________________________________________________________________\nactivation (Activation)      (None, 28, 28, 1)         0         \n=================================================================\nTotal params: 1,637,121\nTrainable params: 1,636,737\nNon-trainable params: 384\n_________________________________________________________________",
    "crumbs": [
      "Advanced Deep Learning",
      "<span class='chapter-number'>72</span>  <span class='chapter-title'>DCGAN Tutorial!</span>"
    ]
  },
  {
    "objectID": "09-GAN/02-DCGAN-MNIST-Tutorial.html#discriminator",
…
    "text": "Discriminator\ndiscriminator를 정의합니다.\n\ndiscriminator = Sequential([\n    Conv2D(32, kernel_size=3, strides=2, padding='same', input_shape=(28, 28, 1)), \n    LeakyReLU(alpha=0.01), \n    Dropout(0.25),\n    Conv2D(64, kernel_size=3, strides=2, padding='same'), \n    LeakyReLU(alpha=0.01), \n    Conv2D(128, kernel_size=3, strides=2, padding='same'), \n    LeakyReLU(alpha=0.01), \n    Dropout(0.25),\n    Flatten(), \n    Dense(1, activation='sigmoid'),\n])\n\n\ndiscriminator.summary()\n\nModel: \"sequential_1\"\n_________________________________________________________________\nLayer (type)                 Output Shape              Param #   \n=================================================================\nconv2d_1 (Conv2D)            (None, 14, 14, 32)        320       \n_________________________________________________________________\nleaky_re_lu_3 (LeakyReLU)    (None, 14, 14, 32)        0         \n_________________________________________________________________\ndropout (Dropout)            (None, 14, 14, 32)        0         \n_________________________________________________________________\nconv2d_2 (Conv2D)            (None, 7, 7, 64)          18496     \n_________________________________________________________________\nleaky_re_lu_4 (LeakyReLU)    (None, 7, 7, 64)          0         \n_________________________________________________________________\nconv2d_3 (Conv2D)            (None, 4, 4, 128)         73856     \n_________________________________________________________________\nleaky_re_lu_5 (LeakyReLU)    (None, 4, 4, 128)         0         \n_________________________________________________________________\ndropout_1 (Dropout)          (None, 4, 4, 128)         0         \n_________________________________________________________________\nflatten (Flatten)            (None, 2048)              0         \n_________________________________________________________________\ndense_1 (Dense)              (None, 1)                 2049      \n=================================================================\nTotal params: 94,721\nTrainable params: 94,721\nNon-trainable params: 0\n_________________________________________________________________\n\n\n반드시 dicriminator를 compile 해주어야 합니다.\n\ndiscriminator.compile(loss='binary_crossentropy', optimizer=adam)",
    "crumbs": [
      "Advanced Deep Learning",
      "<span class='chapter-number'>72</span>  <span class='chapter-title'>DCGAN Tutorial!</span>"
…
